…
I0427 23:18:10.764729 77758 caffe.cpp:279] GPU device name: TITAN X (Pascal)
I0427 23:18:11.289271 77758 net.cpp:294] The NetState phase (1) differed from the phase (0) specified by a rule in layer cifar
I0427 23:18:11.289505 77758 net.cpp:51] Initializing net from parameters: 
name: "CIFAR10_quick"
state {
  phase: TEST
  level: 0
  stage: ""
}
layer {
  name: "cifar"
  type: "Data"
  top: "data"
  top: "label"
  include {
    phase: TEST
  }
  transform_param {
    mean_file: "examples/cifar10/mean.binaryproto"
  }
  data_param {
    source: "examples/cifar10/cifar10_test_lmdb"
    batch_size: 100
    backend: LMDB
  }
}
layer {
  name: "conv1"
  type: "Convolution"
  bottom: "data"
  top: "conv1"
  param {
    lr_mult: 1
  }
  param {
    lr_mult: 2
  }
  convolution_param {
    num_output: 32
    pad: 2
    kernel_size: 5
    stride: 1
    weight_filler {
      type: "gaussian"
      std: 0.0001
    }
    bias_filler {
      type: "constant"
    }
  }
}
layer {
  name: "pool1"
  type: "Pooling"
  bottom: "conv1"
  top: "pool1"
  pooling_param {
    pool: MAX
    kernel_size: 3
    stride: 2
  }
}
layer {
  name: "relu1"
  type: "ReLU"
  bottom: "pool1"
  top: "pool1"
}
layer {
  name: "conv2"
  type: "Convolution"
  bottom: "pool1"
  top: "conv2"
  param {
    lr_mult: 1
  }
  param {
    lr_mult: 2
  }
  convolution_param {
    num_output: 32
    pad: 2
    kernel_size: 5
    stride: 1
    weight_filler {
      type: "gaussian"
      std: 0.01
    }
    bias_filler {
      type: "constant"
    }
  }
}
layer {
  name: "relu2"
  type: "ReLU"
  bottom: "conv2"
  top: "conv2"
}
layer {
  name: "pool2"
  type: "Pooling"
  bottom: "conv2"
  top: "pool2"
  pooling_param {
    pool: AVE
    kernel_size: 3
    stride: 2
  }
}
layer {
  name: "conv3"
  type: "Convolution"
  bottom: "pool2"
  top: "conv3"
  param {
    lr_mult: 1
  }
  param {
    lr_mult: 2
  }
  convolution_param {
    num_output: 64
    pad: 2
    kernel_size: 5
    stride: 1
    weight_filler {
      type: "gaussian"
      std: 0.01
    }
    bias_filler {
      type: "constant"
    }
  }
}
layer {
  name: "relu3"
  type: "ReLU"
  bottom: "conv3"
  top: "conv3"
}
layer {
  name: "pool3"
  type: "Pooling"
  bottom: "conv3"
  top: "pool3"
  pooling_param {
    pool: AVE
    kernel_size: 3
    stride: 2
  }
}
layer {
  name: "ip1"
  type: "InnerProduct"
  bottom: "pool3"
  top: "ip1"
  param {
    lr_mult: 1
  }
  param {
    lr_mult: 2
  }
  inner_product_param {
    num_output: 64
    weight_filler {
      type: "gaussian"
      std: 0.1
    }
    bias_filler {
      type: "constant"
    }
  }
  pruning_param {
    coeff: 0.2
  }
}
layer {
  name: "ip2"
  type: "InnerProduct"
  bottom: "ip1"
  top: "ip2"
  param {
    lr_mult: 1
  }
  param {
    lr_mult: 2
  }
  inner_product_param {
    num_output: 10
    weight_filler {
      type: "gaussian"
      std: 0.1
    }
    bias_filler {
      type: "constant"
    }
  }
  pruning_param {
    coeff: 0.2
  }
}
layer {
  name: "accuracy"
  type: "Accuracy"
  bottom: "ip2"
  bottom: "label"
  top: "accuracy"
  include {
    phase: TEST
  }
}
layer {
  name: "loss"
  type: "SoftmaxWithLoss"
  bottom: "ip2"
  bottom: "label"
  top: "loss"
}
I0427 23:18:11.289660 77758 layer_factory.hpp:77] Creating layer cifar
I0427 23:18:11.289806 77758 db_lmdb.cpp:35] Opened lmdb examples/cifar10/cifar10_test_lmdb
I0427 23:18:11.289839 77758 net.cpp:84] Creating Layer cifar
I0427 23:18:11.289850 77758 net.cpp:380] cifar -> data
I0427 23:18:11.289880 77758 net.cpp:380] cifar -> label
I0427 23:18:11.289902 77758 data_transformer.cpp:25] Loading mean file from: examples/cifar10/mean.binaryproto
I0427 23:18:11.306323 77758 data_layer.cpp:45] output data size: 100,3,32,32
I0427 23:18:11.316679 77758 net.cpp:122] Setting up cifar
I0427 23:18:11.316717 77758 net.cpp:129] Top shape: 100 3 32 32 (307200)
I0427 23:18:11.316727 77758 net.cpp:129] Top shape: 100 (100)
I0427 23:18:11.316732 77758 net.cpp:137] Memory required for data: 1229200
I0427 23:18:11.316745 77758 layer_factory.hpp:77] Creating layer label_cifar_1_split
I0427 23:18:11.316771 77758 net.cpp:84] Creating Layer label_cifar_1_split
I0427 23:18:11.316807 77758 net.cpp:406] label_cifar_1_split <- label
I0427 23:18:11.316826 77758 net.cpp:380] label_cifar_1_split -> label_cifar_1_split_0
I0427 23:18:11.316841 77758 net.cpp:380] label_cifar_1_split -> label_cifar_1_split_1
I0427 23:18:11.316928 77758 net.cpp:122] Setting up label_cifar_1_split
I0427 23:18:11.316944 77758 net.cpp:129] Top shape: 100 (100)
I0427 23:18:11.316951 77758 net.cpp:129] Top shape: 100 (100)
I0427 23:18:11.316956 77758 net.cpp:137] Memory required for data: 1230000
I0427 23:18:11.316962 77758 layer_factory.hpp:77] Creating layer conv1
I0427 23:18:11.316985 77758 net.cpp:84] Creating Layer conv1
I0427 23:18:11.316992 77758 net.cpp:406] conv1 <- data
I0427 23:18:11.317003 77758 net.cpp:380] conv1 -> conv1
I0427 23:18:11.318732 77758 net.cpp:122] Setting up conv1
I0427 23:18:11.318758 77758 net.cpp:129] Top shape: 100 32 32 32 (3276800)
I0427 23:18:11.318763 77758 net.cpp:137] Memory required for data: 14337200
I0427 23:18:11.318788 77758 layer_factory.hpp:77] Creating layer pool1
I0427 23:18:11.318800 77758 net.cpp:84] Creating Layer pool1
I0427 23:18:11.318805 77758 net.cpp:406] pool1 <- conv1
I0427 23:18:11.318816 77758 net.cpp:380] pool1 -> pool1
I0427 23:18:11.319041 77758 net.cpp:122] Setting up pool1
I0427 23:18:11.319061 77758 net.cpp:129] Top shape: 100 32 16 16 (819200)
I0427 23:18:11.319067 77758 net.cpp:137] Memory required for data: 17614000
I0427 23:18:11.319072 77758 layer_factory.hpp:77] Creating layer relu1
I0427 23:18:11.319083 77758 net.cpp:84] Creating Layer relu1
I0427 23:18:11.319089 77758 net.cpp:406] relu1 <- pool1
I0427 23:18:11.319097 77758 net.cpp:367] relu1 -> pool1 (in-place)
I0427 23:18:11.319105 77758 net.cpp:122] Setting up relu1
I0427 23:18:11.319113 77758 net.cpp:129] Top shape: 100 32 16 16 (819200)
I0427 23:18:11.319118 77758 net.cpp:137] Memory required for data: 20890800
I0427 23:18:11.319123 77758 layer_factory.hpp:77] Creating layer conv2
I0427 23:18:11.319139 77758 net.cpp:84] Creating Layer conv2
I0427 23:18:11.319144 77758 net.cpp:406] conv2 <- pool1
I0427 23:18:11.319155 77758 net.cpp:380] conv2 -> conv2
I0427 23:18:11.322105 77758 net.cpp:122] Setting up conv2
I0427 23:18:11.322129 77758 net.cpp:129] Top shape: 100 32 16 16 (819200)
I0427 23:18:11.322135 77758 net.cpp:137] Memory required for data: 24167600
I0427 23:18:11.322150 77758 layer_factory.hpp:77] Creating layer relu2
I0427 23:18:11.322161 77758 net.cpp:84] Creating Layer relu2
I0427 23:18:11.322166 77758 net.cpp:406] relu2 <- conv2
I0427 23:18:11.322175 77758 net.cpp:367] relu2 -> conv2 (in-place)
I0427 23:18:11.322185 77758 net.cpp:122] Setting up relu2
I0427 23:18:11.322191 77758 net.cpp:129] Top shape: 100 32 16 16 (819200)
I0427 23:18:11.322196 77758 net.cpp:137] Memory required for data: 27444400
I0427 23:18:11.322201 77758 layer_factory.hpp:77] Creating layer pool2
I0427 23:18:11.322212 77758 net.cpp:84] Creating Layer pool2
I0427 23:18:11.322217 77758 net.cpp:406] pool2 <- conv2
I0427 23:18:11.322224 77758 net.cpp:380] pool2 -> pool2
I0427 23:18:11.322255 77758 net.cpp:122] Setting up pool2
I0427 23:18:11.322264 77758 net.cpp:129] Top shape: 100 32 8 8 (204800)
I0427 23:18:11.322269 77758 net.cpp:137] Memory required for data: 28263600
I0427 23:18:11.322273 77758 layer_factory.hpp:77] Creating layer conv3
I0427 23:18:11.322294 77758 net.cpp:84] Creating Layer conv3
I0427 23:18:11.322300 77758 net.cpp:406] conv3 <- pool2
I0427 23:18:11.322311 77758 net.cpp:380] conv3 -> conv3
I0427 23:18:11.325368 77758 net.cpp:122] Setting up conv3
I0427 23:18:11.325388 77758 net.cpp:129] Top shape: 100 64 8 8 (409600)
I0427 23:18:11.325393 77758 net.cpp:137] Memory required for data: 29902000
I0427 23:18:11.325407 77758 layer_factory.hpp:77] Creating layer relu3
I0427 23:18:11.325419 77758 net.cpp:84] Creating Layer relu3
I0427 23:18:11.325425 77758 net.cpp:406] relu3 <- conv3
I0427 23:18:11.325433 77758 net.cpp:367] relu3 -> conv3 (in-place)
I0427 23:18:11.325440 77758 net.cpp:122] Setting up relu3
I0427 23:18:11.325448 77758 net.cpp:129] Top shape: 100 64 8 8 (409600)
I0427 23:18:11.325474 77758 net.cpp:137] Memory required for data: 31540400
I0427 23:18:11.325477 77758 layer_factory.hpp:77] Creating layer pool3
I0427 23:18:11.325489 77758 net.cpp:84] Creating Layer pool3
I0427 23:18:11.325494 77758 net.cpp:406] pool3 <- conv3
I0427 23:18:11.325500 77758 net.cpp:380] pool3 -> pool3
I0427 23:18:11.325536 77758 net.cpp:122] Setting up pool3
I0427 23:18:11.325544 77758 net.cpp:129] Top shape: 100 64 4 4 (102400)
I0427 23:18:11.325548 77758 net.cpp:137] Memory required for data: 31950000
I0427 23:18:11.325553 77758 layer_factory.hpp:77] Creating layer ip1
I0427 23:18:11.325567 77758 net.cpp:84] Creating Layer ip1
I0427 23:18:11.325572 77758 net.cpp:406] ip1 <- pool3
I0427 23:18:11.325580 77758 net.cpp:380] ip1 -> ip1
I0427 23:18:11.329366 77758 net.cpp:122] Setting up ip1
I0427 23:18:11.329383 77758 net.cpp:129] Top shape: 100 64 (6400)
I0427 23:18:11.329388 77758 net.cpp:137] Memory required for data: 31975600
I0427 23:18:11.329399 77758 layer_factory.hpp:77] Creating layer ip2
I0427 23:18:11.329409 77758 net.cpp:84] Creating Layer ip2
I0427 23:18:11.329414 77758 net.cpp:406] ip2 <- ip1
I0427 23:18:11.329423 77758 net.cpp:380] ip2 -> ip2
I0427 23:18:11.329677 77758 net.cpp:122] Setting up ip2
I0427 23:18:11.329691 77758 net.cpp:129] Top shape: 100 10 (1000)
I0427 23:18:11.329696 77758 net.cpp:137] Memory required for data: 31979600
I0427 23:18:11.329710 77758 layer_factory.hpp:77] Creating layer ip2_ip2_0_split
I0427 23:18:11.329720 77758 net.cpp:84] Creating Layer ip2_ip2_0_split
I0427 23:18:11.329725 77758 net.cpp:406] ip2_ip2_0_split <- ip2
I0427 23:18:11.329735 77758 net.cpp:380] ip2_ip2_0_split -> ip2_ip2_0_split_0
I0427 23:18:11.329744 77758 net.cpp:380] ip2_ip2_0_split -> ip2_ip2_0_split_1
I0427 23:18:11.329793 77758 net.cpp:122] Setting up ip2_ip2_0_split
I0427 23:18:11.329805 77758 net.cpp:129] Top shape: 100 10 (1000)
I0427 23:18:11.329813 77758 net.cpp:129] Top shape: 100 10 (1000)
I0427 23:18:11.329816 77758 net.cpp:137] Memory required for data: 31987600
I0427 23:18:11.329823 77758 layer_factory.hpp:77] Creating layer accuracy
I0427 23:18:11.329830 77758 net.cpp:84] Creating Layer accuracy
I0427 23:18:11.329836 77758 net.cpp:406] accuracy <- ip2_ip2_0_split_0
I0427 23:18:11.329843 77758 net.cpp:406] accuracy <- label_cifar_1_split_0
I0427 23:18:11.329850 77758 net.cpp:380] accuracy -> accuracy
…
